archive/best.pth (torch_old, 19911 bytes, 13 tensors)

pipe1.0.weight f4 [8, 3, 5, 5]
0	0x3da34f91	0.079741605
1	0xbdbc3686	-0.09190087
2	0xbd1312da	-0.03590665
3	0xbcdd4763	-0.027011579
4	0x3c9d9454	0.019235767
5	0x3beb0cac	0.0071731415
6	0x3de4e4ee	0.111764774
7	0xbc77fa1c	-0.015135314
8	0x3de28789	0.110610075
9	0x3dcaf1b6	0.09909384
10	0xbdcd4866	-0.100235745
11	0x3d89be2f	0.06725728
12	0xbd733d59	-0.059384678
13	0xbdacd309	-0.08438689
14	0xbbb5da37	-0.005549695
15	0x3d6f50be	0.05842661
16	0xbdc180ad	-0.09448371
17	0x3d329211	0.04359633
18	0xbd7d3899	-0.061821554
19	0xbcd8b176	-0.026451807
20	0x3d9d8823	0.07691982
21	0xbd41d7d3	-0.047324967
22	0xbd95807e	-0.072998986
23	0xbd160d56	-0.036633812
24	0x3b53450e	0.0032237205
25	0x3d2d4ce1	0.042309646
26	0x3c829268	0.015938953
27	0xbd51e0c3	-0.05123974
28	0x3d61fb50	0.05517131
29	0xbd89f055	-0.06735293
30	0xbde1ce77	-0.11025708
31	0xbdcb0f46	-0.099150226
32	0x3d23b277	0.03996512
33	0xbc85c259	-0.016328024
34	0x3d86373a	0.065535024
35	0xbd416bb4	-0.047221854
36	0xbc21a8c6	-0.009866899
37	0xbd917ff7	-0.071044855
38	0x3d730c14	0.05933769
39	0xbd893ffd	-0.06701658
40	0x3d96e433	0.07367744
41	0xbd059bc3	-0.03261925
42	0x3d48c599	0.04901657
43	0xbd5911b8	-0.052995414
44	0x3d6be27c	0.05758904
45	0xbdd2865c	-0.10279533
46	0xbd99e0a3	-0.07513549
47	0xbd9b366f	-0.07578742
48	0xbc0f22cd	-0.0087363245
49	0x3d48b45b	0.049000125
50	0x3d54f8df	0.051995154
51	0xbdd0ac45	-0.10189108
52	0xbd26cd38	-0.040723056
53	0x3c597aa5	0.01327387
54	0x3d838b5b	0.06423064
55	0x3cd5f56c	0.026118003
56	0xbdc22c44	-0.09481099
57	0x3d2ae422	0.04172147
58	0xbdbbbae9	-0.0916651
59	0x3cfcd496	0.030863088
60	0x3db747c8	0.08949238
61	0x3d34e24c	0.044161126
62	0x3cd4aeb6	0.025962215
63	0xbc9ad437	-0.01890002
64	0xbda4a9f9	-0.08040232
65	0xbd483a6d	-0.048883844
66	0xbdcc704c	-0.099823564
67	0xbdebb4ca	-0.11509092
68	0xbd81e173	-0.06341829
69	0x3ddd5a1f	0.10808205
70	0xbdb79912	-0.08964743
71	0x3d86de86	0.06585412
72	0x3ca3305c	0.01992052
73	0x3c62366f	0.013806923
74	0x3dd3141b	0.10306569
75	0xbd9ca47b	-0.0764856
76	0xbd8875d6	-0.066631004
77	0xbddf4881	-0.10902501
78	0xbc2c2192	-0.010506051
79	0x3dbabb2a	0.0911773
80	0x3db0d20d	0.08633814
81	0xbd8d1eb2	-0.0689062
82	0xbcc4f4b2	-0.024042461
83	0xbd28d74a	-0.04122094
84	0x3d904924	0.070452005
85	0x3c881a21	0.016614022
86	0x3dbae0f5	0.091249384
87	0xbd5b39e4	-0.053522006
88	0x3d35feee	0.044432573
89	0x3d2c4fc9	0.042068277
90	0xbd074a82	-0.03303004
91	0x3d28cb70	0.041209638
92	0x3d3e28d2	0.046425648
93	0xbd7c1665	-0.061544795
94	0x3d62e739	0.055396292
95	0x3d14b689	0.03630689
96	0x3bfb90b0	0.00767716
97	0x3dcf8695	0.10133091
98	0x3d3755ab	0.044759434
99	0xbd89f76d	-0.06736646
100	0x3de9d326	0.114172265
101	0xbda6432d	-0.081182815
102	0x3c765b41	0.015036405
103	0x3dd57bed	0.104240276
104	0x3d387eb5	0.045042712
105	0xbcbc476f	-0.022983281
106	0x3d753557	0.059865322
107	0xbd0c6b95	-0.034282286
108	0xbcd18cb1	-0.025579782
109	0x3c51a30b	0.01279522
110	0x3d87a01b	0.066223346
111	0x3d6d7e2a	0.057981648
112	0xbd2fde52	-0.04293663
113	0x3dd917a7	0.106002145
114	0x3de3be5f	0.11120295
115	0x3c81c8bb	0.015842786
116	0x3d0ad371	0.033893052
117	0xbd261da0	-0.040555596
118	0xbc01df43	-0.007926765
119	0x3da15dc9	0.07879216
120	0xbd9f92c7	-0.077916674
121	0x3d8989dc	0.06715748
122	0xbdbee076	-0.09320156
123	0xbce06804	-0.027393349
124	0xbd05ba82	-0.03264857
125	0xbd69e817	-0.057106104
126	0xbd49d03f	-0.049270865
127	0x3daf2fda	0.08554049
128	0xbcaf3223	-0.021386212
129	0xbd31f456	-0.043445908
130	0xbd7990d9	-0.060929153
131	0xbd953642	-0.072857395
132	0x3d353a25	0.044244904
133	0x3cab39b3	0.020901537
134	0xbda97991	-0.0827514
135	0x3d71d7a0	0.059043527
136	0xbdd597d7	-0.10429352
137	0x3db9fecb	0.09081801
138	0xbbb10947	-0.0054027173
139	0x3da56a64	0.08076933
140	0x3d81cfd0	0.06338465
141	0x3d942215	0.07233063
142	0xbcd6253d	-0.026140803
143	0xbd27331e	-0.040820234
144	0x3da3ec61	0.0800407
145	0x3da0b4f2	0.078470126
146	0xbd649e78	-0.05581519
147	0xbd279d67	-0.040921595
148	0xbbacbfb8	-0.005271878
149	0xbdb6cabc	-0.08925387
150	0xbdb4124f	-0.087925546
151	0x3aa400f3	0.001251249
152	0xbd757564	-0.059926406
153	0x3dbb8867	0.09156876
154	0xbdc29417	-0.09500902
155	0x3ddc9141	0.107698925
156	0x3dd4cc58	0.10390538
157	0x3d803ef9	0.06262011
158	0x3d80cb0f	0.0628873
159	0x3d565383	0.052325737
160	0xbda5f1de	-0.08102773
161	0x3bbe96f4	0.005816335
162	0xbd90c45b	-0.07068702
163	0xbdeae88c	-0.11470136
164	0x3ddb58fc	0.10710332
165	0xbdb58510	-0.0886327
166	0x3b712fec	0.0036802245
167	0x3d99b2a9	0.0750478
168	0xbd8f0d7a	-0.06984992
169	0xbd1a28e3	-0.03763665
170	0x3d7992ef	0.060931142
171	0xbdd75ce9	-0.10515768
172	0xbd1c3af5	-0.038142163
173	0x3d941b78	0.07231802
174	0xba1a7883	-0.00058925914
175	0x3d0b6249	0.03402928
176	0xbda5eef6	-0.08102219
177	0x3bb2e669	0.005459596
178	0x3dc426c0	0.095777035
179	0x3dc38a0a	0.09547813
180	0xbdc0a863	-0.09407117
181	0xbd63b34d	-0.055590916
182	0x3d8c38a9	0.068467446
183	0x3dae5c6d	0.085137226
184	0xbdb68fdc	-0.08914158
185	0x3dbf31c9	0.09335668
186	0xbd88f3b6	-0.06687109
187	0xbce2de95	-0.027694026
188	0xbdd0f534	-0.10203019
189	0xbd89437f	-0.06702327
190	0x3d360d66	0.04444637
191	0xbc1a1150	-0.009403542
192	0xbcc4ab0f	-0.024007348
193	0xbd9334bf	-0.07187795
194	0x3dd606b1	0.10450495
195	0xbc2dc5d9	-0.010606253
196	0xbdce993e	-0.100878224
197	0xbd921c12	-0.0713426
198	0xbdb02575	-0.08600894
199	0x3d8e38e6	0.06944446
200	0x3d231161	0.039811496
201	0x3c5ce035	0.0134811895
202	0x3da6b568	0.08140069
203	0x3b8db577	0.004324611
204	0x3d18dacc	0.037318036
205	0xbcf6d7d3	-0.03013221
206	0xbc21f440	-0.009884894
207	0xbc7a51dc	-0.015278306
208	0xbdbf1838	-0.09330791
209	0xbd525525	-0.05135073
210	0x3d79b261	0.06096113
211	0xbc9ae1ef	-0.018906562
212	0xbdd7a9b4	-0.10530415
213	0xbd09493f	-0.03351712
214	0x3dad2e62	0.084561124
215	0x3d7e53e3	0.06209172
216	0x3d0ba5cf	0.034093674
217	0x3dd245e1	0.102672346
218	0xbc8917d1	-0.01673499
219	0xbdb27157	-0.08713024
220	0x3bd6d3d3	0.006556013
221	0xbcebfbf2	-0.02880666
222	0x3d559ee5	0.052153487
223	0x3cbf8aec	0.023381673
224	0xbcf8f599	-0.030390548
225	0xbdb43052	-0.08798279
226	0xbdd2b3dc	-0.10288212
227	0xbc995ef4	-0.018722035
228	0xbb2c3e0b	-0.0026282098
229	0xbd339d57	-0.043851223
230	0xbc39f4a7	-0.011349834
231	0xbde3821b	-0.111088
232	0x3d9d6329	0.07684929
233	0x3da0533b	0.07828375
234	0x3da981e5	0.082767285
235	0x3cf43136	0.029808622
236	0x3d4fb663	0.050711047
237	0xbcee1391	-0.029062064
238	0x3d7762d6	0.06039699
239	0x3d04c4c5	0.032414217
240	0xbdeb5865	-0.11491469
241	0x3c814939	0.015781986
242	0xbc79509c	-0.015216973
243	0x3c2e321a	0.010632062
244	0x3c1246b7	0.008927993
245	0xbd6cfebf	-0.057860132
246	0x3b82352d	0.003973624
247	0x3d58c764	0.05292453
248	0x3c4ff363	0.012692305
249	0xbdaee1ac	-0.08539137
250	0xb9ec0da4	-0.0004502359
251	0x3d842d6b	0.06453975
252	0xbd1a0d50	-0.037610352
253	0x3d0f3bcf	0.034969147
254	0x3bf33d6e	0.0074230945
255	0xbd50212e	-0.050812893

pipe1.0.bias f4 [8]
0	0xbd948d26	-0.072534844
1	0xbdd300ad	-0.10302863
2	0x3d16c675	0.036810357
3	0x3d184007	0.037170436
4	0xbb82cb13	-0.0039914935
5	0xbdb8ff8e	-0.09033118
6	0x3ad55155	0.0016274849
7	0x3dd284bb	0.102792226

pipe2.0.weight f4 [16, 8, 3, 3]
0	0xbcd5fd4e	-0.026121762
1	0xbd623351	-0.05522472
2	0x3deaf43a	0.11472364
3	0x3b4a51e6	0.003087157
4	0x3c7e1b61	0.015509457
5	0xbd75b560	-0.059987426
6	0x3d7eb72c	0.062186405
7	0x3dac2edc	0.08407375
8	0xbcc780dc	-0.024353437
9	0xbcbfc0a7	-0.023407293
10	0xbc93c72c	-0.018039308
11	0xbc506d6e	-0.012721403
12	0x3ddfea20	0.10933328
13	0x3d1ec7a6	0.03876462
14	0x3db210aa	0.08694585
15	0x3de3ea29	0.11128647
16	0xbde2b9e9	-0.11070616
17	0xbdabeb52	-0.08394493
18	0xbc383795	-0.011243721
19	0xbd47283f	-0.048622366
20	0xbd0db7e8	-0.034599215
21	0xbd86f92d	-0.06590495
22	0x3da5ee3a	0.08102079
23	0x3d62a3f5	0.055332143
24	0xbda051c2	-0.07828094
25	0x3d3e11c1	0.04640365
26	0x3cdd1017	0.026985211
27	0x3c8bf716	0.017085593
28	0x3aef5e5c	0.0018262374
29	0xbd975d04	-0.07390788
30	0x3c9c7ac8	0.019101515
31	0xbdb58a45	-0.088642634
32	0x3dc707ea	0.09718306
33	0x3cc92bed	0.024557078
34	0xbdcd1458	-0.10013646
35	0xbdc22543	-0.09479763
36	0xbd132cb1	-0.035931293
37	0x3d503b30	0.050837696
38	0x3d19a143	0.037507307
39	0x3c8770cb	0.016533276
40	0x3d4d34d4	0.05009921
41	0x3d897141	0.067110546
42	0x3c033e96	0.008010527
43	0xbde79fee	-0.11309801
44	0xbcb4b4af	-0.022058813
45	0x3db369c0	0.087604046
46	0xbd919759	-0.071089454
47	0xbddf6367	-0.10907631
48	0x3dc3eb95	0.09566418
49	0x3c1b50e3	0.009479734
50	0xbc6f5d95	-0.014609714
51	0x3dc2a16b	0.09503444
52	0xbdcab32c	-0.098974556
53	0xbd4afb92	-0.049556322
54	0xbd9d7ecd	-0.07690201
55	0xbbf09006	-0.0073413877
56	0x3ce73368	0.028222755
57	0x3db0822c	0.08618578
58	0x3c6c6b0c	0.014429819
59	0x3d1da589	0.038487945
60	0x3dbf6290	0.09344971
61	0xbd72de53	-0.059294056
62	0x3da543a9	0.08069546
63	0xbdd3d04d	-0.103424646
64	0xbd3dc12f	-0.046326812
65	0x3d5757fe	0.05257415
66	0xbd75ca83	-0.060007583
67	0x3d009620	0.03139317
68	0xbb0e31da	-0.0021697194
69	0x3d93243a	0.07184644
70	0xbda807b4	-0.08204594
71	0x3ca24a92	0.019810949
72	0x3d1012f2	0.035174318
73	0x3c964514	0.018343486
74	0xbda88cc3	-0.08229973
75	0x3d84df07	0.064878516
76	0x3c9324ac	0.017961822
77	0xbd6089c2	-0.054818876
78	0xbca41b84	-0.020032652
79	0x3db353dd	0.0875623
80	0xbd44b22e	-0.048021488
81	0x3acb62c0	0.0015517101
82	0xbdb02bf4	-0.086021334
83	0x3d39f052	0.045395203
84	0xbd38f11a	-0.045151807
85	0x3daa2479	0.08307738
86	0xbde49788	-0.11161715
87	0xbda9aedc	-0.08285305
88	0x3d3da8ee	0.046303682
89	0xbd107552	-0.035268135
90	0x3de0374f	0.10948049
91	0x3b443d20	0.002994366
92	0x3c95ad74	0.018271185
93	0xbbb9c460	-0.0056691617
94	0xbd28ebb4	-0.04124041
95	0x3d5ff502	0.054677017
96	0xbd6dbb2a	-0.05803982
97	0xbde3adbe	-0.11117123
98	0x3d9f2199	0.0777008
99	0xbd9d3c5d	-0.07677529
100	0xbd8d6a58	-0.06905049
101	0x3db4e447	0.08832603
102	0x3cf55b84	0.029950865
103	0xbdc15b22	-0.0944121
104	0xbd079d56	-0.03310903
105	0x3d8e1f59	0.06939573
106	0xbd099178	-0.033585995
107	0xbd50c97e	-0.050973408
108	0x3d57e096	0.052704416
109	0x3dccc6eb	0.09998878
110	0x3b93e970	0.004513912
111	0x3dd86e91	0.10567964
112	0xbd941629	-0.07230789
113	0xbc4c7058	-0.012477957
114	0x3ddf2e41	0.10897494
115	0x3cf6e6e4	0.030139394
116	0x3d5726e2	0.052527316
117	0x3d51b24e	0.051195435
118	0x3d99c537	0.07508319
119	0xbdd1f48d	-0.102517225
120	0xbbb82360	-0.0056194514
121	0xbdba392f	-0.09092938
122	0xbcbcf358	-0.023065254
123	0x3cb536ac	0.022120796
124	0xbcad118c	-0.021126531
125	0x3dc3f67b	0.09568497
126	0xbcdcdf90	-0.026962072
127	0x3c5b9e18	0.013404392
128	0xbdd1c2ef	-0.10242259
129	0x3ce06da4	0.02739603
130	0x3d90ddd3	0.070735596
131	0xbdda7d50	-0.10668433
132	0xba1af380	-0.0005910918
133	0xbd18ea68	-0.037332922
134	0xbcfa4af4	-0.030553319
135	0xbd51377a	-0.051078297
136	0xbd9d76aa	-0.07688649
137	0xbd01eab2	-0.031717964
138	0x3d31b2ae	0.043383293
139	0x3d09005a	0.0334476
140	0x3c1cb788	0.009565242
141	0xbdbf5d60	-0.09343982
142	0x3d0a92ca	0.033831395
143	0x3da25a3d	0.07927368
144	0xbd4b47c2	-0.04962898
145	0x38dd6492	0.00010556834
146	0xbd0ceb38	-0.03440401
147	0x3d69f83a	0.057121493
148	0x3ce3c8c7	0.027805699
149	0xbcab84e7	-0.020937396
150	0x3da1c703	0.078992866
151	0x3dadec6b	0.08492359
152	0xbd4b799e	-0.04967653
153	0xbd6ad4fb	-0.05733202
154	0xbdc80a5d	-0.09767602
155	0xbd102863	-0.035194766
156	0xbd85064b	-0.06495341
157	0x3dcd1870	0.10014427
158	0xbd1c782b	-0.03820054
159	0x3cb2acfb	0.021811
160	0xbdc24ad1	-0.09486926
161	0xbdca374b	-0.098738275
162	0xbc6adade	-0.014334409
163	0xbd897e1e	-0.06713508
164	0xbd7491e7	-0.059709456
165	0x3de6bea7	0.11266833
166	0xbda3c33d	-0.07996223
167	0xbccf70e7	-0.02532239
168	0x3be7b02a	0.007070561
169	0xbdeddad4	-0.11614004
170	0xbd992be5	-0.07479075
171	0x3dad3d24	0.08458927
172	0xbd5cc19c	-0.053895578
173	0x3d05e830	0.032692134
174	0x3dae19bb	0.085010014
175	0x3d0b6840	0.034034967
176	0xbd9cea83	-0.07661917
177	0xbd28fb32	-0.041255184
178	0x3cd2814f	0.025696425
179	0x3dafbd18	0.08580989
180	0x3dc1650b	0.094431005
181	0x3dd3adf0	0.1033591
182	0x39af9666	0.00033490657
183	0x3dd3e69b	0.10346719
184	0x3d009858	0.031395286
185	0x3cf3314c	0.029686593
186	0x3de52082	0.11187841
187	0x3d7fdd92	0.062467165
188	0xbd9cb16f	-0.0765103
189	0x3dc77499	0.09739036
190	0xbd3abe74	-0.045591787
191	0x3da775ce	0.08176766
192	0xbddf35ce	-0.10898934
193	0x3d81ef65	0.06344489
194	0xbdcc5d3e	-0.09978722
195	0xbdb72a81	-0.08943654
196	0x3d84ba14	0.06480804
197	0x3d409340	0.04701543
198	0xbd795e29	-0.060880814
199	0xbde40cc2	-0.11135246
200	0x3dd975b1	0.10618151
201	0xbd728140	-0.059205294
202	0x3d5410bb	0.051773768
203	0xbda1d5d1	-0.0790211
204	0x3ddf8ac6	0.10915141
205	0xbddcabc7	-0.107749514
206	0xbd85ea92	-0.06538881
207	0xbd9f87be	-0.07789563
208	0x3dca8bd4	0.09889951
209	0xbd6eacec	-0.05827038
210	0xbcb3ac86	-0.021932852
211	0xbdc962af	-0.098332755
212	0xbdcf3e33	-0.101192854
213	0xbd18adae	-0.03727501
214	0x3dca79b4	0.09886494
215	0x3daddb16	0.08489053
216	0x3db6c70d	0.08924685
217	0xbdeae120	-0.114687204
218	0xbd6208b6	-0.05518409
219	0x3dabde03	0.08391955
220	0x3c8b10f5	0.01697586
221	0x3dde07f9	0.108413644
222	0x3dc333fa	0.09531398
223	0x3de63cda	0.11242075
224	0xbdd7f569	-0.10544855
225	0xbd365869	-0.04451791
226	0xbda4625f	-0.08026575
227	0xbde40a2c	-0.11134753
228	0xbd68bfdf	-0.056823608
229	0xbd0c5ce8	-0.03426829
230	0xbdb36720	-0.08759904
231	0x3d8c68c6	0.068559214
232	0xbd58332f	-0.052783187
233	0x3dc0a4ec	0.09406456
234	0xbdb1ab1b	-0.08675214
235	0x3dc2d82e	0.09513889
236	0x3d652a14	0.055948332
237	0xbd5dd486	-0.054157756
238	0xbdb66d33	-0.08907547
239	0x3d663610	0.0562039
240	0x3d52dbb5	0.05147906
241	0x3c32f21d	0.010921982
242	0x3d79ffe1	0.06103504
243	0x3ca5c9c3	0.020237809
244	0x3de30095	0.110840954
245	0xbd9fc15a	-0.07800551
246	0xbda8fbcb	-0.08251151
247	0x3cc9657a	0.02458452
248	0x3b1b7977	0.0023723522
249	0x3db5e100	0.08880806
250	0x3d6658bc	0.056236967
251	0xbd4febdf	-0.050762054
252	0x3d9a5d6a	0.075373486
253	0x3de94840	0.11390734
254	0xbddf73d4	-0.10910764
255	0x3d0a7e10	0.03381163

pipe2.0.bias f4 [16]
0	0xbc4f1e52	-0.012641506
1	0xbdc5a6ed	-0.09650979
2	0x3d9edf6a	0.077574566
3	0xbd90a15f	-0.07062029
4	0x3dc96c5a	0.098351195
5	0x3db8415a	0.0899684
6	0x3d7201e6	0.05908384
7	0x3d8df13b	0.06930777
8	0x3dd7b551	0.1053263
9	0xbc8b5168	-0.017006591
10	0x3d76af8a	0.060226
11	0x3ce004b9	0.027346002
12	0xbd3ca2a8	-0.04605356
13	0x3cad7b49	0.021176951
14	0xbddfdf9e	-0.109313235
15	0x3de228cc	0.11042938

pipe3.0.weight f4 [32, 16, 2, 2]
0	0x3d8e0188	0.06933886
1	0xbd8f7f3c	-0.0700669
2	0xbd8e0d2c	-0.06936106
3	0xbc90873c	-0.01764261
4	0x3b9898a0	0.004656866
5	0x3db1e238	0.08685726
6	0xbdb1aec0	-0.08675909
7	0x3db96716	0.09052865
8	0x3ddf81b7	0.10913413
9	0xbdbb9aac	-0.09160361
10	0x3dc08ad8	0.09401482
11	0xbdb2a20d	-0.08722315
12	0x3c90d4c0	0.017679572
13	0x3dfa2e53	0.12215867
14	0xbdf45a07	-0.11931234
15	0xbca532e0	-0.02016586
16	0xbdeff1ef	-0.11716067
17	0x3c2ff3cd	0.010739279
18	0xbddc7ca0	-0.10765958
19	0x3ddb8b65	0.10719947
20	0xbd90fb1b	-0.070791446
21	0xbc6bca8f	-0.014391555
22	0x3c37b372	0.011212217
23	0x3d484c95	0.04890116
24	0x3db7f6ef	0.08982646
25	0xbcc1455f	-0.023592649
26	0xbdde81ad	-0.108645774
27	0xbda34c04	-0.07973483
28	0x3ddd2aa9	0.107991524
29	0x3ddc5cee	0.107599124
30	0x3db31fb3	0.087462805
31	0x3c81342f	0.015771953
32	0x3d8a3071	0.06747521
33	0x3c46ad72	0.0121263135
34	0xbd8d2194	-0.0689117
35	0xbdf1522d	-0.11783252
36	0x3d95ec54	0.07320467
37	0xbd60a18c	-0.054841563
38	0x3a892c00	0.0010465384
39	0xbddbcd20	-0.10732484
40	0xbda8dfc8	-0.08245808
41	0x3a896419	0.0010482102
42	0xbc32834c	-0.010895561
43	0xbdef3912	-0.11680807
44	0xbdf669e5	-0.120319165
45	0xbd0cdea2	-0.034392007
46	0xbdf1971c	-0.117964
47	0xbdeb8fd3	-0.11502042
48	0xbdbb6a59	-0.091511436
49	0x3c943628	0.01809223
50	0xbdd5160b	-0.10404595
51	0x3dc41e8b	0.09576138
52	0xbdc18ccd	-0.09450684
53	0x3de85219	0.11343784
54	0x3dc8765f	0.097882025
55	0x3b700f31	0.0036630149
56	0x3dbac0a8	0.091187775
57	0x3d71ca80	0.05903101
58	0xbdb0e722	-0.08637835
59	0x3d3f289c	0.046669587
60	0x3d8ad2de	0.06778501
61	0x3d2ee56a	0.042699255
62	0xbdb70f07	-0.08938413
63	0x3da2e972	0.079546824
64	0xbd68b69a	-0.056814767
65	0x3dadba1f	0.084827654
66	0xbd62672a	-0.055274166
67	0xb9d20b5f	-0.00040062793
68	0xbdb6d6b4	-0.0892767
69	0x3d0df830	0.03466052
70	0xbd94b480	-0.0726099
71	0xbddced9c	-0.10787508
72	0x3d98f0a8	0.074677765
73	0x3d5afe72	0.053465314
74	0x3d619d51	0.05508167
75	0xbd614a23	-0.055002343
76	0xbdf2d329	-0.11856682
77	0xbd57ffdb	-0.052734237
78	0xbd808b69	-0.062765904
79	0x3dbac478	0.09119505
80	0x3db12fa1	0.086516626
81	0xbbbf8575	-0.0058447667
82	0x3de87085	0.113495864
83	0x3cba760a	0.022761364
84	0xbd13c1dc	-0.03607355
85	0xbdf834f9	-0.12119479
86	0x3df87888	0.121323645
87	0xbba9a574	-0.0051771943
88	0xbd046528	-0.032323033
89	0xbd29d69b	-0.04146443
90	0xbdc6635e	-0.096869215
91	0xbd299037	-0.0413973
92	0xbdd0a7ed	-0.10188279
93	0x3c833be3	0.016019767
94	0xbd284167	-0.041077998
95	0xbd3044fb	-0.043034535
96	0xbc60f9ed	-0.013731462
97	0xbd68354d	-0.056691457
98	0xbdb48b90	-0.08815682
99	0x3df54d50	0.11977637
100	0x3cd10740	0.025516152
101	0x3dd096ac	0.101849884
102	0xbd985e68	-0.074398816
103	0x3dde81ca	0.10864599
104	0xbd4bf4f8	-0.049794167
105	0xbc92c082	-0.01791406
106	0xbd14facb	-0.036371987
107	0x3d2e8f54	0.042617157
108	0x3ddca527	0.10773688
109	0xbdcd4f28	-0.100248635
110	0xbd9b4fa1	-0.075835474
111	0xbc9b8274	-0.018983103
112	0x3de65416	0.11246507
113	0xbd6cd159	-0.057816837
114	0x3ce2511e	0.02762657
115	0xbda8cc92	-0.08242144
116	0x3c7a9a82	0.015295627
117	0xbd54001c	-0.051757917
118	0x3d961df3	0.07329931
119	0x3acff2fd	0.0015865263
120	0xbdbbcfaa	-0.09170468
121	0xbdcff4b2	-0.10154094
122	0xbdc2f862	-0.095200315
123	0x3d73ee8c	0.059553668
124	0xbc9a1719	-0.018809842
125	0x3c04e9e2	0.008112403
126	0xbdabafb0	-0.08383119
127	0x3bc8737b	0.006117282
128	0xbca89e73	-0.020583367
129	0xbabc2ac1	-0.0014356003
130	0x3c50c6ae	0.012742681
131	0xbbf14e0d	-0.0073640407
132	0xbd05c79c	-0.032661065
133	0xbd63023c	-0.055422053
134	0x3dcafd66	0.09911613
135	0x3b142180	0.0022602975
136	0xbd268b3e	-0.040660135
137	0xbd1a66c0	-0.037695646
138	0xbcfe42a7	-0.031037642
139	0x3da0ef6e	0.078581676
140	0x3d245bd5	0.04012664
141	0x3dd0eb92	0.102011815
142	0x3d730712	0.059332915
143	0x3cbaaace	0.022786524
144	0xbdf54c2a	-0.11977418
145	0x3da68c78	0.08132261
146	0xbdb348d8	-0.08754128
147	0x3d9b67ca	0.075881556
148	0xbcfa7e4b	-0.0305778
149	0xbd46ef2f	-0.048567947
150	0xbd58a06a	-0.052887358
151	0xbc5b3544	-0.013379399
152	0xbdba5889	-0.09098918
153	0xbdae1977	-0.08500951
154	0x3dc16eb6	0.094449446
155	0xbd3c5ab2	-0.04598493
156	0xbdf89a52	-0.12138809
157	0x3d59e819	0.05319986
158	0x3d8adbb8	0.06780189
159	0x3dfcadea	0.12337859
160	0xbc5335e7	-0.012891269
161	0x3df282db	0.11841365
162	0x3da82f05	0.08212093
163	0xbdadbfd3	-0.08483853
164	0xb999b400	-0.00029316545
165	0xbdd26c82	-0.102746025
166	0xbd30331c	-0.04301749
167	0x3de734ee	0.112893924
168	0xbd5009ac	-0.050790474
169	0x3b8a6e38	0.004224565
170	0x3d93058f	0.071787946
171	0xbdb03358	-0.08603543
172	0x3dc7cf2a	0.0975631
173	0x3d2bf19c	0.041978464
174	0xbdcf1593	-0.10111537
175	0xbd7dc4cc	-0.06195526
176	0xbd384051	-0.044983212
177	0x3d43c3d3	0.047794174
178	0xbaf9c17a	-0.0019054853
179	0xbdd26eaa	-0.10275014
180	0x3df0d7cd	0.11759911
181	0x3d8cb769	0.0687092
182	0xbdb3acee	-0.08773218
183	0x3da4543a	0.080238774
184	0x3d212c9c	0.039349183
185	0xbdd83304	-0.105566055
186	0xbdd4a186	-0.10382371
187	0xbdcc1958	-0.099657714
188	0xbd78463e	-0.060613863
189	0x3bb7ee2b	0.0056131086
190	0x3dbb14ef	0.09134852
191	0x3dd530a4	0.10409668
192	0xbd71674c	-0.058936402
193	0xbddc1e0c	-0.107479185
194	0x3b884b6b	0.004159381
195	0xbddd9323	-0.1081908
196	0x3d68c4ac	0.056828186
197	0xbd90c094	-0.07067981
198	0x3dbbec56	0.09175937
199	0x3d9c8aa6	0.076436326
200	0xbd55923b	-0.05214141
201	0x3d72b29b	0.059252363
202	0xbde1afbf	-0.11019849
203	0x3ddf54a6	0.10904817
204	0x3d54eef0	0.05198568
205	0x3d5da708	0.05411437
206	0xbd06824b	-0.0328391
207	0xbd288764	-0.041144744
208	0x3d87ef77	0.06637471
209	0x3ddd3949	0.10801942
210	0xbde3abbe	-0.111167416
211	0x3dde0834	0.10841408
212	0x3d5c6e13	0.053815912
213	0x3cbe9c30	0.023267835
214	0x3cadcc73	0.021215653
215	0x3daf0b6c	0.085471004
216	0xbd6f17e7	-0.058372404
217	0xbd7163d4	-0.058933094
218	0xbdcb601c	-0.09930441
219	0x3d62ae35	0.055341918
220	0x3d30e381	0.043185715
221	0x3da146b3	0.07874813
222	0xbdeeee37	-0.116665296
223	0xbde3dfb8	-0.11126655
224	0x3d9ddd99	0.07708282
225	0xbd829451	-0.06375945
226	0x3d2783c7	0.040897157
227	0xbd847c86	-0.064690635
228	0xbd86cb0e	-0.06581698
229	0x3c234820	0.009965926
230	0xbcfebff0	-0.031097382
231	0x3d371ca0	0.044705033
232	0xbde6c757	-0.1126849
233	0x3dd7383e	0.10508774
234	0xbd473742	-0.048636682
235	0xbc5dde16	-0.013541719
236	0xbce51de7	-0.02796836
237	0x3dad9995	0.08476559
238	0x3ba4ebef	0.0050330083
239	0x3d7d93db	0.061908584
240	0x3d2d7ffe	0.04235839
241	0xbd98924d	-0.0744978
242	0xbc8deccd	-0.01732483
243	0x3d075818	0.033042997
244	0x3d4fbc34	0.050716594
245	0xba06d24e	-0.0005143032
246	0x3db17cc9	0.08666379
247	0xbc8100bf	-0.015747426
248	0xbde4c98e	-0.11171256
249	0xbcf291b0	-0.029610485
250	0xbddc0954	-0.10743967
251	0x3d6bff18	0.057616323
252	0x3c97fa8c	0.018552087
253	0xbc84a06b	-0.016189774
254	0xbd8eb6ce	-0.06968461
255	0x3d887567	0.06663018

pipe3.0.bias f4 [32]
0	0xbd7f60f8	-0.062348336
1	0xbbf4b35e	-0.0074676713
2	0x3dc381db	0.09546252
3	0xbd90d48c	-0.0707179
4	0xbda46dcc	-0.080287546
5	0x3ddb1180	0.10696697
6	0x3df895d9	0.12137956
7	0x3c7a6b33	0.015284347
8	0x3dbcb730	0.09214628
9	0xbd60d6fd	-0.05489253
10	0xbdcc2d72	-0.099696055
11	0x3db31abe	0.08745335
12	0xbdd8f5bc	-0.10593745
13	0x3d11e501	0.035618786
14	0xbc2d5dde	-0.010581462
15	0xbc2d3205	-0.010571008
16	0xbdc7d25c	-0.0975692
17	0x3da1dbde	0.079032645
18	0x3d064b24	0.032786503
19	0x3d959a85	0.07304863
20	0x3d1c2a4c	0.038126275
21	0xbbb2bce3	-0.005454646
22	0xbced8781	-0.028995277
23	0x3dd70bab	0.10500272
24	0x3bca49e0	0.0061733574
25	0xbdc438d4	-0.095811516
26	0xbd04c158	-0.03241095
27	0x3c0963ea	0.008385638
28	0xbdce905e	-0.100861296
29	0x3cf75685	0.030192623
30	0x3b9c995f	0.0047790254
31	0x3c3af182	0.011410119

pipes.0.0.weight f4 [8, 3, 5, 5]
0	0x3da34f91	0.079741605
1	0xbdbc3686	-0.09190087
2	0xbd1312da	-0.03590665
3	0xbcdd4763	-0.027011579
4	0x3c9d9454	0.019235767
5	0x3beb0cac	0.0071731415
6	0x3de4e4ee	0.111764774
7	0xbc77fa1c	-0.015135314
8	0x3de28789	0.110610075
9	0x3dcaf1b6	0.09909384
10	0xbdcd4866	-0.100235745
11	0x3d89be2f	0.06725728
12	0xbd733d59	-0.059384678
13	0xbdacd309	-0.08438689
14	0xbbb5da37	-0.005549695
15	0x3d6f50be	0.05842661
16	0xbdc180ad	-0.09448371
17	0x3d329211	0.04359633
18	0xbd7d3899	-0.061821554
19	0xbcd8b176	-0.026451807
20	0x3d9d8823	0.07691982
21	0xbd41d7d3	-0.047324967
22	0xbd95807e	-0.072998986
23	0xbd160d56	-0.036633812
24	0x3b53450e	0.0032237205
25	0x3d2d4ce1	0.042309646
26	0x3c829268	0.015938953
27	0xbd51e0c3	-0.05123974
28	0x3d61fb50	0.05517131
29	0xbd89f055	-0.06735293
30	0xbde1ce77	-0.11025708
31	0xbdcb0f46	-0.099150226
32	0x3d23b277	0.03996512
33	0xbc85c259	-0.016328024
34	0x3d86373a	0.065535024
35	0xbd416bb4	-0.047221854
36	0xbc21a8c6	-0.009866899
37	0xbd917ff7	-0.071044855
38	0x3d730c14	0.05933769
39	0xbd893ffd	-0.06701658
40	0x3d96e433	0.07367744
41	0xbd059bc3	-0.03261925
42	0x3d48c599	0.04901657
43	0xbd5911b8	-0.052995414
44	0x3d6be27c	0.05758904
45	0xbdd2865c	-0.10279533
46	0xbd99e0a3	-0.07513549
47	0xbd9b366f	-0.07578742
48	0xbc0f22cd	-0.0087363245
49	0x3d48b45b	0.049000125
50	0x3d54f8df	0.051995154
51	0xbdd0ac45	-0.10189108
52	0xbd26cd38	-0.040723056
53	0x3c597aa5	0.01327387
54	0x3d838b5b	0.06423064
55	0x3cd5f56c	0.026118003
56	0xbdc22c44	-0.09481099
57	0x3d2ae422	0.04172147
58	0xbdbbbae9	-0.0916651
59	0x3cfcd496	0.030863088
60	0x3db747c8	0.08949238
61	0x3d34e24c	0.044161126
62	0x3cd4aeb6	0.025962215
63	0xbc9ad437	-0.01890002
64	0xbda4a9f9	-0.08040232
65	0xbd483a6d	-0.048883844
66	0xbdcc704c	-0.099823564
67	0xbdebb4ca	-0.11509092
68	0xbd81e173	-0.06341829
69	0x3ddd5a1f	0.10808205
70	0xbdb79912	-0.08964743
71	0x3d86de86	0.06585412
72	0x3ca3305c	0.01992052
73	0x3c62366f	0.013806923
74	0x3dd3141b	0.10306569
75	0xbd9ca47b	-0.0764856
76	0xbd8875d6	-0.066631004
77	0xbddf4881	-0.10902501
78	0xbc2c2192	-0.010506051
79	0x3dbabb2a	0.0911773
80	0x3db0d20d	0.08633814
81	0xbd8d1eb2	-0.0689062
82	0xbcc4f4b2	-0.024042461
83	0xbd28d74a	-0.04122094
84	0x3d904924	0.070452005
85	0x3c881a21	0.016614022
86	0x3dbae0f5	0.091249384
87	0xbd5b39e4	-0.053522006
88	0x3d35feee	0.044432573
89	0x3d2c4fc9	0.042068277
90	0xbd074a82	-0.03303004
91	0x3d28cb70	0.041209638
92	0x3d3e28d2	0.046425648
93	0xbd7c1665	-0.061544795
94	0x3d62e739	0.055396292
95	0x3d14b689	0.03630689
96	0x3bfb90b0	0.00767716
97	0x3dcf8695	0.10133091
98	0x3d3755ab	0.044759434
99	0xbd89f76d	-0.06736646
100	0x3de9d326	0.114172265
101	0xbda6432d	-0.081182815
102	0x3c765b41	0.015036405
103	0x3dd57bed	0.104240276
104	0x3d387eb5	0.045042712
105	0xbcbc476f	-0.022983281
106	0x3d753557	0.059865322
107	0xbd0c6b95	-0.034282286
108	0xbcd18cb1	-0.025579782
109	0x3c51a30b	0.01279522
110	0x3d87a01b	0.066223346
111	0x3d6d7e2a	0.057981648
112	0xbd2fde52	-0.04293663
113	0x3dd917a7	0.106002145
114	0x3de3be5f	0.11120295
115	0x3c81c8bb	0.015842786
116	0x3d0ad371	0.033893052
117	0xbd261da0	-0.040555596
118	0xbc01df43	-0.007926765
119	0x3da15dc9	0.07879216
120	0xbd9f92c7	-0.077916674
121	0x3d8989dc	0.06715748
122	0xbdbee076	-0.09320156
123	0xbce06804	-0.027393349
124	0xbd05ba82	-0.03264857
125	0xbd69e817	-0.057106104
126	0xbd49d03f	-0.049270865
127	0x3daf2fda	0.08554049
128	0xbcaf3223	-0.021386212
129	0xbd31f456	-0.043445908
130	0xbd7990d9	-0.060929153
131	0xbd953642	-0.072857395
132	0x3d353a25	0.044244904
133	0x3cab39b3	0.020901537
134	0xbda97991	-0.0827514
135	0x3d71d7a0	0.059043527
136	0xbdd597d7	-0.10429352
137	0x3db9fecb	0.09081801
138	0xbbb10947	-0.0054027173
139	0x3da56a64	0.08076933
140	0x3d81cfd0	0.06338465
141	0x3d942215	0.07233063
142	0xbcd6253d	-0.026140803
143	0xbd27331e	-0.040820234
144	0x3da3ec61	0.0800407
145	0x3da0b4f2	0.078470126
146	0xbd649e78	-0.05581519
147	0xbd279d67	-0.040921595
148	0xbbacbfb8	-0.005271878
149	0xbdb6cabc	-0.08925387
150	0xbdb4124f	-0.087925546
151	0x3aa400f3	0.001251249
152	0xbd757564	-0.059926406
153	0x3dbb8867	0.09156876
154	0xbdc29417	-0.09500902
155	0x3ddc9141	0.107698925
156	0x3dd4cc58	0.10390538
157	0x3d803ef9	0.06262011
158	0x3d80cb0f	0.0628873
159	0x3d565383	0.052325737
160	0xbda5f1de	-0.08102773
161	0x3bbe96f4	0.005816335
162	0xbd90c45b	-0.07068702
163	0xbdeae88c	-0.11470136
164	0x3ddb58fc	0.10710332
165	0xbdb58510	-0.0886327
166	0x3b712fec	0.0036802245
167	0x3d99b2a9	0.0750478
168	0xbd8f0d7a	-0.06984992
169	0xbd1a28e3	-0.03763665
170	0x3d7992ef	0.060931142
171	0xbdd75ce9	-0.10515768
172	0xbd1c3af5	-0.038142163
173	0x3d941b78	0.07231802
174	0xba1a7883	-0.00058925914
175	0x3d0b6249	0.03402928
176	0xbda5eef6	-0.08102219
177	0x3bb2e669	0.005459596
178	0x3dc426c0	0.095777035
179	0x3dc38a0a	0.09547813
180	0xbdc0a863	-0.09407117
181	0xbd63b34d	-0.055590916
182	0x3d8c38a9	0.068467446
183	0x3dae5c6d	0.085137226
184	0xbdb68fdc	-0.08914158
185	0x3dbf31c9	0.09335668
186	0xbd88f3b6	-0.06687109
187	0xbce2de95	-0.027694026
188	0xbdd0f534	-0.10203019
189	0xbd89437f	-0.06702327
190	0x3d360d66	0.04444637
191	0xbc1a1150	-0.009403542
192	0xbcc4ab0f	-0.024007348
193	0xbd9334bf	-0.07187795
194	0x3dd606b1	0.10450495
195	0xbc2dc5d9	-0.010606253
196	0xbdce993e	-0.100878224
197	0xbd921c12	-0.0713426
198	0xbdb02575	-0.08600894
199	0x3d8e38e6	0.06944446
200	0x3d231161	0.039811496
201	0x3c5ce035	0.0134811895
202	0x3da6b568	0.08140069
203	0x3b8db577	0.004324611
204	0x3d18dacc	0.037318036
205	0xbcf6d7d3	-0.03013221
206	0xbc21f440	-0.009884894
207	0xbc7a51dc	-0.015278306
208	0xbdbf1838	-0.09330791
209	0xbd525525	-0.05135073
210	0x3d79b261	0.06096113
211	0xbc9ae1ef	-0.018906562
212	0xbdd7a9b4	-0.10530415
213	0xbd09493f	-0.03351712
214	0x3dad2e62	0.084561124
215	0x3d7e53e3	0.06209172
216	0x3d0ba5cf	0.034093674
217	0x3dd245e1	0.102672346
218	0xbc8917d1	-0.01673499
219	0xbdb27157	-0.08713024
220	0x3bd6d3d3	0.006556013
221	0xbcebfbf2	-0.02880666
222	0x3d559ee5	0.052153487
223	0x3cbf8aec	0.023381673
224	0xbcf8f599	-0.030390548
225	0xbdb43052	-0.08798279
226	0xbdd2b3dc	-0.10288212
227	0xbc995ef4	-0.018722035
228	0xbb2c3e0b	-0.0026282098
229	0xbd339d57	-0.043851223
230	0xbc39f4a7	-0.011349834
231	0xbde3821b	-0.111088
232	0x3d9d6329	0.07684929
233	0x3da0533b	0.07828375
234	0x3da981e5	0.082767285
235	0x3cf43136	0.029808622
236	0x3d4fb663	0.050711047
237	0xbcee1391	-0.029062064
238	0x3d7762d6	0.06039699
239	0x3d04c4c5	0.032414217
240	0xbdeb5865	-0.11491469
241	0x3c814939	0.015781986
242	0xbc79509c	-0.015216973
243	0x3c2e321a	0.010632062
244	0x3c1246b7	0.008927993
245	0xbd6cfebf	-0.057860132
246	0x3b82352d	0.003973624
247	0x3d58c764	0.05292453
248	0x3c4ff363	0.012692305
249	0xbdaee1ac	-0.08539137
250	0xb9ec0da4	-0.0004502359
251	0x3d842d6b	0.06453975
252	0xbd1a0d50	-0.037610352
253	0x3d0f3bcf	0.034969147
254	0x3bf33d6e	0.0074230945
255	0xbd50212e	-0.050812893

pipes.0.0.bias f4 [8]
0	0xbd948d26	-0.072534844
1	0xbdd300ad	-0.10302863
2	0x3d16c675	0.036810357
3	0x3d184007	0.037170436
4	0xbb82cb13	-0.0039914935
5	0xbdb8ff8e	-0.09033118
6	0x3ad55155	0.0016274849
7	0x3dd284bb	0.102792226

pipes.1.0.weight f4 [16, 8, 3, 3]
0	0xbcd5fd4e	-0.026121762
1	0xbd623351	-0.05522472
2	0x3deaf43a	0.11472364
3	0x3b4a51e6	0.003087157
4	0x3c7e1b61	0.015509457
5	0xbd75b560	-0.059987426
6	0x3d7eb72c	0.062186405
7	0x3dac2edc	0.08407375
8	0xbcc780dc	-0.024353437
9	0xbcbfc0a7	-0.023407293
10	0xbc93c72c	-0.018039308
11	0xbc506d6e	-0.012721403
12	0x3ddfea20	0.10933328
13	0x3d1ec7a6	0.03876462
14	0x3db210aa	0.08694585
15	0x3de3ea29	0.11128647
16	0xbde2b9e9	-0.11070616
17	0xbdabeb52	-0.08394493
18	0xbc383795	-0.011243721
19	0xbd47283f	-0.048622366
20	0xbd0db7e8	-0.034599215
21	0xbd86f92d	-0.06590495
22	0x3da5ee3a	0.08102079
23	0x3d62a3f5	0.055332143
24	0xbda051c2	-0.07828094
25	0x3d3e11c1	0.04640365
26	0x3cdd1017	0.026985211
27	0x3c8bf716	0.017085593
28	0x3aef5e5c	0.0018262374
29	0xbd975d04	-0.07390788
30	0x3c9c7ac8	0.019101515
31	0xbdb58a45	-0.088642634
32	0x3dc707ea	0.09718306
33	0x3cc92bed	0.024557078
34	0xbdcd1458	-0.10013646
35	0xbdc22543	-0.09479763
36	0xbd132cb1	-0.035931293
37	0x3d503b30	0.050837696
38	0x3d19a143	0.037507307
39	0x3c8770cb	0.016533276
40	0x3d4d34d4	0.05009921
41	0x3d897141	0.067110546
42	0x3c033e96	0.008010527
43	0xbde79fee	-0.11309801
44	0xbcb4b4af	-0.022058813
45	0x3db369c0	0.087604046
46	0xbd919759	-0.071089454
47	0xbddf6367	-0.10907631
48	0x3dc3eb95	0.09566418
49	0x3c1b50e3	0.009479734
50	0xbc6f5d95	-0.014609714
51	0x3dc2a16b	0.09503444
52	0xbdcab32c	-0.098974556
53	0xbd4afb92	-0.049556322
54	0xbd9d7ecd	-0.07690201
55	0xbbf09006	-0.0073413877
56	0x3ce73368	0.028222755
57	0x3db0822c	0.08618578
58	0x3c6c6b0c	0.014429819
59	0x3d1da589	0.038487945
60	0x3dbf6290	0.09344971
61	0xbd72de53	-0.059294056
62	0x3da543a9	0.08069546
63	0xbdd3d04d	-0.103424646
64	0xbd3dc12f	-0.046326812
65	0x3d5757fe	0.05257415
66	0xbd75ca83	-0.060007583
67	0x3d009620	0.03139317
68	0xbb0e31da	-0.0021697194
69	0x3d93243a	0.07184644
70	0xbda807b4	-0.08204594
71	0x3ca24a92	0.019810949
72	0x3d1012f2	0.035174318
73	0x3c964514	0.018343486
74	0xbda88cc3	-0.08229973
75	0x3d84df07	0.064878516
76	0x3c9324ac	0.017961822
77	0xbd6089c2	-0.054818876
78	0xbca41b84	-0.020032652
79	0x3db353dd	0.0875623
80	0xbd44b22e	-0.048021488
81	0x3acb62c0	0.0015517101
82	0xbdb02bf4	-0.086021334
83	0x3d39f052	0.045395203
84	0xbd38f11a	-0.045151807
85	0x3daa2479	0.08307738
86	0xbde49788	-0.11161715
87	0xbda9aedc	-0.08285305
88	0x3d3da8ee	0.046303682
89	0xbd107552	-0.035268135
90	0x3de0374f	0.10948049
91	0x3b443d20	0.002994366
92	0x3c95ad74	0.018271185
93	0xbbb9c460	-0.0056691617
94	0xbd28ebb4	-0.04124041
95	0x3d5ff502	0.054677017
96	0xbd6dbb2a	-0.05803982
97	0xbde3adbe	-0.11117123
98	0x3d9f2199	0.0777008
99	0xbd9d3c5d	-0.07677529
100	0xbd8d6a58	-0.06905049
101	0x3db4e447	0.08832603
102	0x3cf55b84	0.029950865
103	0xbdc15b22	-0.0944121
104	0xbd079d56	-0.03310903
105	0x3d8e1f59	0.06939573
106	0xbd099178	-0.033585995
107	0xbd50c97e	-0.050973408
108	0x3d57e096	0.052704416
109	0x3dccc6eb	0.09998878
110	0x3b93e970	0.004513912
111	0x3dd86e91	0.10567964
112	0xbd941629	-0.07230789
113	0xbc4c7058	-0.012477957
114	0x3ddf2e41	0.10897494
115	0x3cf6e6e4	0.030139394
116	0x3d5726e2	0.052527316
117	0x3d51b24e	0.051195435
118	0x3d99c537	0.07508319
119	0xbdd1f48d	-0.102517225
120	0xbbb82360	-0.0056194514
121	0xbdba392f	-0.09092938
122	0xbcbcf358	-0.023065254
123	0x3cb536ac	0.022120796
124	0xbcad118c	-0.021126531
125	0x3dc3f67b	0.09568497
126	0xbcdcdf90	-0.026962072
127	0x3c5b9e18	0.013404392
128	0xbdd1c2ef	-0.10242259
129	0x3ce06da4	0.02739603
130	0x3d90ddd3	0.070735596
131	0xbdda7d50	-0.10668433
132	0xba1af380	-0.0005910918
133	0xbd18ea68	-0.037332922
134	0xbcfa4af4	-0.030553319
135	0xbd51377a	-0.051078297
136	0xbd9d76aa	-0.07688649
137	0xbd01eab2	-0.031717964
138	0x3d31b2ae	0.043383293
139	0x3d09005a	0.0334476
140	0x3c1cb788	0.009565242
141	0xbdbf5d60	-0.09343982
142	0x3d0a92ca	0.033831395
143	0x3da25a3d	0.07927368
144	0xbd4b47c2	-0.04962898
145	0x38dd6492	0.00010556834
146	0xbd0ceb38	-0.03440401
147	0x3d69f83a	0.057121493
148	0x3ce3c8c7	0.027805699
149	0xbcab84e7	-0.020937396
150	0x3da1c703	0.078992866
151	0x3dadec6b	0.08492359
152	0xbd4b799e	-0.04967653
153	0xbd6ad4fb	-0.05733202
154	0xbdc80a5d	-0.09767602
155	0xbd102863	-0.035194766
156	0xbd85064b	-0.06495341
157	0x3dcd1870	0.10014427
158	0xbd1c782b	-0.03820054
159	0x3cb2acfb	0.021811
160	0xbdc24ad1	-0.09486926
161	0xbdca374b	-0.098738275
162	0xbc6adade	-0.014334409
163	0xbd897e1e	-0.06713508
164	0xbd7491e7	-0.059709456
165	0x3de6bea7	0.11266833
166	0xbda3c33d	-0.07996223
167	0xbccf70e7	-0.02532239
168	0x3be7b02a	0.007070561
169	0xbdeddad4	-0.11614004
170	0xbd992be5	-0.07479075
171	0x3dad3d24	0.08458927
172	0xbd5cc19c	-0.053895578
173	0x3d05e830	0.032692134
174	0x3dae19bb	0.085010014
175	0x3d0b6840	0.034034967
176	0xbd9cea83	-0.07661917
177	0xbd28fb32	-0.041255184
178	0x3cd2814f	0.025696425
179	0x3dafbd18	0.08580989
180	0x3dc1650b	0.094431005
181	0x3dd3adf0	0.1033591
182	0x39af9666	0.00033490657
183	0x3dd3e69b	0.10346719
184	0x3d009858	0.031395286
185	0x3cf3314c	0.029686593
186	0x3de52082	0.11187841
187	0x3d7fdd92	0.062467165
188	0xbd9cb16f	-0.0765103
189	0x3dc77499	0.09739036
190	0xbd3abe74	-0.045591787
191	0x3da775ce	0.08176766
192	0xbddf35ce	-0.10898934
193	0x3d81ef65	0.06344489
194	0xbdcc5d3e	-0.09978722
195	0xbdb72a81	-0.08943654
196	0x3d84ba14	0.06480804
197	0x3d409340	0.04701543
198	0xbd795e29	-0.060880814
199	0xbde40cc2	-0.11135246
200	0x3dd975b1	0.10618151
201	0xbd728140	-0.059205294
202	0x3d5410bb	0.051773768
203	0xbda1d5d1	-0.0790211
204	0x3ddf8ac6	0.10915141
205	0xbddcabc7	-0.107749514
206	0xbd85ea92	-0.06538881
207	0xbd9f87be	-0.07789563
208	0x3dca8bd4	0.09889951
209	0xbd6eacec	-0.05827038
210	0xbcb3ac86	-0.021932852
211	0xbdc962af	-0.098332755
212	0xbdcf3e33	-0.101192854
213	0xbd18adae	-0.03727501
214	0x3dca79b4	0.09886494
215	0x3daddb16	0.08489053
216	0x3db6c70d	0.08924685
217	0xbdeae120	-0.114687204
218	0xbd6208b6	-0.05518409
219	0x3dabde03	0.08391955
220	0x3c8b10f5	0.01697586
221	0x3dde07f9	0.108413644
222	0x3dc333fa	0.09531398
223	0x3de63cda	0.11242075
224	0xbdd7f569	-0.10544855
225	0xbd365869	-0.04451791
226	0xbda4625f	-0.08026575
227	0xbde40a2c	-0.11134753
228	0xbd68bfdf	-0.056823608
229	0xbd0c5ce8	-0.03426829
230	0xbdb36720	-0.08759904
231	0x3d8c68c6	0.068559214
232	0xbd58332f	-0.052783187
233	0x3dc0a4ec	0.09406456
234	0xbdb1ab1b	-0.08675214
235	0x3dc2d82e	0.09513889
236	0x3d652a14	0.055948332
237	0xbd5dd486	-0.054157756
238	0xbdb66d33	-0.08907547
239	0x3d663610	0.0562039
240	0x3d52dbb5	0.05147906
241	0x3c32f21d	0.010921982
242	0x3d79ffe1	0.06103504
243	0x3ca5c9c3	0.020237809
244	0x3de30095	0.110840954
245	0xbd9fc15a	-0.07800551
246	0xbda8fbcb	-0.08251151
247	0x3cc9657a	0.02458452
248	0x3b1b7977	0.0023723522
249	0x3db5e100	0.08880806
250	0x3d6658bc	0.056236967
251	0xbd4febdf	-0.050762054
252	0x3d9a5d6a	0.075373486
253	0x3de94840	0.11390734
254	0xbddf73d4	-0.10910764
255	0x3d0a7e10	0.03381163

pipes.1.0.bias f4 [16]
0	0xbc4f1e52	-0.012641506
1	0xbdc5a6ed	-0.09650979
2	0x3d9edf6a	0.077574566
3	0xbd90a15f	-0.07062029
4	0x3dc96c5a	0.098351195
5	0x3db8415a	0.0899684
6	0x3d7201e6	0.05908384
7	0x3d8df13b	0.06930777
8	0x3dd7b551	0.1053263
9	0xbc8b5168	-0.017006591
10	0x3d76af8a	0.060226
11	0x3ce004b9	0.027346002
12	0xbd3ca2a8	-0.04605356
13	0x3cad7b49	0.021176951
14	0xbddfdf9e	-0.109313235
15	0x3de228cc	0.11042938

pipes.2.0.weight f4 [32, 16, 2, 2]
0	0x3d8e0188	0.06933886
1	0xbd8f7f3c	-0.0700669
2	0xbd8e0d2c	-0.06936106
3	0xbc90873c	-0.01764261
4	0x3b9898a0	0.004656866
5	0x3db1e238	0.08685726
6	0xbdb1aec0	-0.08675909
7	0x3db96716	0.09052865
8	0x3ddf81b7	0.10913413
9	0xbdbb9aac	-0.09160361
10	0x3dc08ad8	0.09401482
11	0xbdb2a20d	-0.08722315
12	0x3c90d4c0	0.017679572
13	0x3dfa2e53	0.12215867
14	0xbdf45a07	-0.11931234
15	0xbca532e0	-0.02016586
16	0xbdeff1ef	-0.11716067
17	0x3c2ff3cd	0.010739279
18	0xbddc7ca0	-0.10765958
19	0x3ddb8b65	0.10719947
20	0xbd90fb1b	-0.070791446
21	0xbc6bca8f	-0.014391555
22	0x3c37b372	0.011212217
23	0x3d484c95	0.04890116
24	0x3db7f6ef	0.08982646
25	0xbcc1455f	-0.023592649
26	0xbdde81ad	-0.108645774
27	0xbda34c04	-0.07973483
28	0x3ddd2aa9	0.107991524
29	0x3ddc5cee	0.107599124
30	0x3db31fb3	0.087462805
31	0x3c81342f	0.015771953
32	0x3d8a3071	0.06747521
33	0x3c46ad72	0.0121263135
34	0xbd8d2194	-0.0689117
35	0xbdf1522d	-0.11783252
36	0x3d95ec54	0.07320467
37	0xbd60a18c	-0.054841563
38	0x3a892c00	0.0010465384
39	0xbddbcd20	-0.10732484
40	0xbda8dfc8	-0.08245808
41	0x3a896419	0.0010482102
42	0xbc32834c	-0.010895561
43	0xbdef3912	-0.11680807
44	0xbdf669e5	-0.120319165
45	0xbd0cdea2	-0.034392007
46	0xbdf1971c	-0.117964
47	0xbdeb8fd3	-0.11502042
48	0xbdbb6a59	-0.091511436
49	0x3c943628	0.01809223
50	0xbdd5160b	-0.10404595
51	0x3dc41e8b	0.09576138
52	0xbdc18ccd	-0.09450684
53	0x3de85219	0.11343784
54	0x3dc8765f	0.097882025
55	0x3b700f31	0.0036630149
56	0x3dbac0a8	0.091187775
57	0x3d71ca80	0.05903101
58	0xbdb0e722	-0.08637835
59	0x3d3f289c	0.046669587
60	0x3d8ad2de	0.06778501
61	0x3d2ee56a	0.042699255
62	0xbdb70f07	-0.08938413
63	0x3da2e972	0.079546824
64	0xbd68b69a	-0.056814767
65	0x3dadba1f	0.084827654
66	0xbd62672a	-0.055274166
67	0xb9d20b5f	-0.00040062793
68	0xbdb6d6b4	-0.0892767
69	0x3d0df830	0.03466052
70	0xbd94b480	-0.0726099
71	0xbddced9c	-0.10787508
72	0x3d98f0a8	0.074677765
73	0x3d5afe72	0.053465314
74	0x3d619d51	0.05508167
75	0xbd614a23	-0.055002343
76	0xbdf2d329	-0.11856682
77	0xbd57ffdb	-0.052734237
78	0xbd808b69	-0.062765904
79	0x3dbac478	0.09119505
80	0x3db12fa1	0.086516626
81	0xbbbf8575	-0.0058447667
82	0x3de87085	0.113495864
83	0x3cba760a	0.022761364
84	0xbd13c1dc	-0.03607355
85	0xbdf834f9	-0.12119479
86	0x3df87888	0.121323645
87	0xbba9a574	-0.0051771943
88	0xbd046528	-0.032323033
89	0xbd29d69b	-0.04146443
90	0xbdc6635e	-0.096869215
91	0xbd299037	-0.0413973
92	0xbdd0a7ed	-0.10188279
93	0x3c833be3	0.016019767
94	0xbd284167	-0.041077998
95	0xbd3044fb	-0.043034535
96	0xbc60f9ed	-0.013731462
97	0xbd68354d	-0.056691457
98	0xbdb48b90	-0.08815682
99	0x3df54d50	0.11977637
100	0x3cd10740	0.025516152
101	0x3dd096ac	0.101849884
102	0xbd985e68	-0.074398816
103	0x3dde81ca	0.10864599
104	0xbd4bf4f8	-0.049794167
105	0xbc92c082	-0.01791406
106	0xbd14facb	-0.036371987
107	0x3d2e8f54	0.042617157
108	0x3ddca527	0.10773688
109	0xbdcd4f28	-0.100248635
110	0xbd9b4fa1	-0.075835474
111	0xbc9b8274	-0.018983103
112	0x3de65416	0.11246507
113	0xbd6cd159	-0.057816837
114	0x3ce2511e	0.02762657
115	0xbda8cc92	-0.08242144
116	0x3c7a9a82	0.015295627
117	0xbd54001c	-0.051757917
118	0x3d961df3	0.07329931
119	0x3acff2fd	0.0015865263
120	0xbdbbcfaa	-0.09170468
121	0xbdcff4b2	-0.10154094
122	0xbdc2f862	-0.095200315
123	0x3d73ee8c	0.059553668
124	0xbc9a1719	-0.018809842
125	0x3c04e9e2	0.008112403
126	0xbdabafb0	-0.08383119
127	0x3bc8737b	0.006117282
128	0xbca89e73	-0.020583367
129	0xbabc2ac1	-0.0014356003
130	0x3c50c6ae	0.012742681
131	0xbbf14e0d	-0.0073640407
132	0xbd05c79c	-0.032661065
133	0xbd63023c	-0.055422053
134	0x3dcafd66	0.09911613
135	0x3b142180	0.0022602975
136	0xbd268b3e	-0.040660135
137	0xbd1a66c0	-0.037695646
138	0xbcfe42a7	-0.031037642
139	0x3da0ef6e	0.078581676
140	0x3d245bd5	0.04012664
141	0x3dd0eb92	0.102011815
142	0x3d730712	0.059332915
143	0x3cbaaace	0.022786524
144	0xbdf54c2a	-0.11977418
145	0x3da68c78	0.08132261
146	0xbdb348d8	-0.08754128
147	0x3d9b67ca	0.075881556
148	0xbcfa7e4b	-0.0305778
149	0xbd46ef2f	-0.048567947
150	0xbd58a06a	-0.052887358
151	0xbc5b3544	-0.013379399
152	0xbdba5889	-0.09098918
153	0xbdae1977	-0.08500951
154	0x3dc16eb6	0.094449446
155	0xbd3c5ab2	-0.04598493
156	0xbdf89a52	-0.12138809
157	0x3d59e819	0.05319986
158	0x3d8adbb8	0.06780189
159	0x3dfcadea	0.12337859
160	0xbc5335e7	-0.012891269
161	0x3df282db	0.11841365
162	0x3da82f05	0.08212093
163	0xbdadbfd3	-0.08483853
164	0xb999b400	-0.00029316545
165	0xbdd26c82	-0.102746025
166	0xbd30331c	-0.04301749
167	0x3de734ee	0.112893924
168	0xbd5009ac	-0.050790474
169	0x3b8a6e38	0.004224565
170	0x3d93058f	0.071787946
171	0xbdb03358	-0.08603543
172	0x3dc7cf2a	0.0975631
173	0x3d2bf19c	0.041978464
174	0xbdcf1593	-0.10111537
175	0xbd7dc4cc	-0.06195526
176	0xbd384051	-0.044983212
177	0x3d43c3d3	0.047794174
178	0xbaf9c17a	-0.0019054853
179	0xbdd26eaa	-0.10275014
180	0x3df0d7cd	0.11759911
181	0x3d8cb769	0.0687092
182	0xbdb3acee	-0.08773218
183	0x3da4543a	0.080238774
184	0x3d212c9c	0.039349183
185	0xbdd83304	-0.105566055
186	0xbdd4a186	-0.10382371
187	0xbdcc1958	-0.099657714
188	0xbd78463e	-0.060613863
189	0x3bb7ee2b	0.0056131086
190	0x3dbb14ef	0.09134852
191	0x3dd530a4	0.10409668
192	0xbd71674c	-0.058936402
193	0xbddc1e0c	-0.107479185
194	0x3b884b6b	0.004159381
195	0xbddd9323	-0.1081908
196	0x3d68c4ac	0.056828186
197	0xbd90c094	-0.07067981
198	0x3dbbec56	0.09175937
199	0x3d9c8aa6	0.076436326
200	0xbd55923b	-0.05214141
201	0x3d72b29b	0.059252363
202	0xbde1afbf	-0.11019849
203	0x3ddf54a6	0.10904817
204	0x3d54eef0	0.05198568
205	0x3d5da708	0.05411437
206	0xbd06824b	-0.0328391
207	0xbd288764	-0.041144744
208	0x3d87ef77	0.06637471
209	0x3ddd3949	0.10801942
210	0xbde3abbe	-0.111167416
211	0x3dde0834	0.10841408
212	0x3d5c6e13	0.053815912
213	0x3cbe9c30	0.023267835
214	0x3cadcc73	0.021215653
215	0x3daf0b6c	0.085471004
216	0xbd6f17e7	-0.058372404
217	0xbd7163d4	-0.058933094
218	0xbdcb601c	-0.09930441
219	0x3d62ae35	0.055341918
220	0x3d30e381	0.043185715
221	0x3da146b3	0.07874813
222	0xbdeeee37	-0.116665296
223	0xbde3dfb8	-0.11126655
224	0x3d9ddd99	0.07708282
225	0xbd829451	-0.06375945
226	0x3d2783c7	0.040897157
227	0xbd847c86	-0.064690635
228	0xbd86cb0e	-0.06581698
229	0x3c234820	0.009965926
230	0xbcfebff0	-0.031097382
231	0x3d371ca0	0.044705033
232	0xbde6c757	-0.1126849
233	0x3dd7383e	0.10508774
234	0xbd473742	-0.048636682
235	0xbc5dde16	-0.013541719
236	0xbce51de7	-0.02796836
237	0x3dad9995	0.08476559
238	0x3ba4ebef	0.0050330083
239	0x3d7d93db	0.061908584
240	0x3d2d7ffe	0.04235839
241	0xbd98924d	-0.0744978
242	0xbc8deccd	-0.01732483
243	0x3d075818	0.033042997
244	0x3d4fbc34	0.050716594
245	0xba06d24e	-0.0005143032
246	0x3db17cc9	0.08666379
247	0xbc8100bf	-0.015747426
248	0xbde4c98e	-0.11171256
249	0xbcf291b0	-0.029610485
250	0xbddc0954	-0.10743967
251	0x3d6bff18	0.057616323
252	0x3c97fa8c	0.018552087
253	0xbc84a06b	-0.016189774
254	0xbd8eb6ce	-0.06968461
255	0x3d887567	0.06663018

pipes.2.0.bias f4 [32]
0	0xbd7f60f8	-0.062348336
1	0xbbf4b35e	-0.0074676713
2	0x3dc381db	0.09546252
3	0xbd90d48c	-0.0707179
4	0xbda46dcc	-0.080287546
5	0x3ddb1180	0.10696697
6	0x3df895d9	0.12137956
7	0x3c7a6b33	0.015284347
8	0x3dbcb730	0.09214628
9	0xbd60d6fd	-0.05489253
10	0xbdcc2d72	-0.099696055
11	0x3db31abe	0.08745335
12	0xbdd8f5bc	-0.10593745
13	0x3d11e501	0.035618786
14	0xbc2d5dde	-0.010581462
15	0xbc2d3205	-0.010571008
16	0xbdc7d25c	-0.0975692
17	0x3da1dbde	0.079032645
18	0x3d064b24	0.032786503
19	0x3d959a85	0.07304863
20	0x3d1c2a4c	0.038126275
21	0xbbb2bce3	-0.005454646
22	0xbced8781	-0.028995277
23	0x3dd70bab	0.10500272
24	0x3bca49e0	0.0061733574
25	0xbdc438d4	-0.095811516
26	0xbd04c158	-0.03241095
27	0x3c0963ea	0.008385638
28	0xbdce905e	-0.100861296
29	0x3cf75685	0.030192623
30	0x3b9c995f	0.0047790254
31	0x3c3af182	0.011410119
